…
 [  4777 114113]]

Input Variables     : ['nTracks', 'B_P', 'B_Cone3_B_ptasy', 'B_ETA', 'B_MINIPCHI2', 'B_SmallestDeltaChi2OneTrack', 'B_FD_OWNPV', 'piminus_PT', 'piminus_IP_OWNPV', 'daughter_neutral_PT', 'daughter_neutral_IP_OWNPV', 'daughterplus_PT', 'daughterplus_IP_OWNPV']

Model: "sequential_1"
┏━━━━━━━━━━━━━━━━━━━━━━━━━━━━━━━━━━━━━━┳━━━━━━━━━━━━━━━━━━━━━━━━━━━━━┳━━━━━━━━━━━━━━━━━┓
┃ Layer (type)                         ┃ Output Shape                ┃         Param # ┃
┡━━━━━━━━━━━━━━━━━━━━━━━━━━━━━━━━━━━━━━╇━━━━━━━━━━━━━━━━━━━━━━━━━━━━━╇━━━━━━━━━━━━━━━━━┩
│ dense_4 (Dense)                      │ (None, 13)                  │             182 │
├──────────────────────────────────────┼─────────────────────────────┼─────────────────┤
│ dropout_3 (Dropout)                  │ (None, 13)                  │               0 │
├──────────────────────────────────────┼─────────────────────────────┼─────────────────┤
│ dense_5 (Dense)                      │ (None, 156)                 │           2,184 │
├──────────────────────────────────────┼─────────────────────────────┼─────────────────┤
│ dropout_4 (Dropout)                  │ (None, 156)                 │               0 │
├──────────────────────────────────────┼─────────────────────────────┼─────────────────┤
│ dense_6 (Dense)                      │ (None, 13)                  │           2,041 │
├──────────────────────────────────────┼─────────────────────────────┼─────────────────┤
│ dropout_5 (Dropout)                  │ (None, 13)                  │               0 │
├──────────────────────────────────────┼─────────────────────────────┼─────────────────┤
│ dense_7 (Dense)                      │ (None, 1)                   │              14 │
└──────────────────────────────────────┴─────────────────────────────┴─────────────────┘
 Total params: 13,265 (51.82 KB)
 Trainable params: 4,421 (17.27 KB)
 Non-trainable params: 0 (0.00 B)
 Optimizer params: 8,844 (34.55 KB)

