…
 [  903  5875]]

Input Variables     : ['nTracks', 'B_P', 'B_Cone3_B_ptasy', 'B_ETA', 'B_MINIPCHI2', 'B_SmallestDeltaChi2OneTrack', 'B_FD_OWNPV', 'piminus_PT', 'piminus_IP_OWNPV', 'daughter_neutral_PT', 'daughter_neutral_IP_OWNPV', 'daughterplus_PT', 'daughterplus_IP_OWNPV']

Model: "sequential"
┏━━━━━━━━━━━━━━━━━━━━━━━━━━━━━━━━━━━━━━┳━━━━━━━━━━━━━━━━━━━━━━━━━━━━━┳━━━━━━━━━━━━━━━━━┓
┃ Layer (type)                         ┃ Output Shape                ┃         Param # ┃
┡━━━━━━━━━━━━━━━━━━━━━━━━━━━━━━━━━━━━━━╇━━━━━━━━━━━━━━━━━━━━━━━━━━━━━╇━━━━━━━━━━━━━━━━━┩
│ batch_normalization                  │ (None, 13)                  │              52 │
│ (BatchNormalization)                 │                             │                 │
├──────────────────────────────────────┼─────────────────────────────┼─────────────────┤
│ dense (Dense)                        │ (None, 13)                  │             182 │
├──────────────────────────────────────┼─────────────────────────────┼─────────────────┤
│ dropout (Dropout)                    │ (None, 13)                  │               0 │
├──────────────────────────────────────┼─────────────────────────────┼─────────────────┤
│ batch_normalization_1                │ (None, 13)                  │              52 │
│ (BatchNormalization)                 │                             │                 │
├──────────────────────────────────────┼─────────────────────────────┼─────────────────┤
│ dense_1 (Dense)                      │ (None, 156)                 │           2,184 │
├──────────────────────────────────────┼─────────────────────────────┼─────────────────┤
│ dropout_1 (Dropout)                  │ (None, 156)                 │               0 │
├──────────────────────────────────────┼─────────────────────────────┼─────────────────┤
│ batch_normalization_2                │ (None, 156)                 │             624 │
│ (BatchNormalization)                 │                             │                 │
├──────────────────────────────────────┼─────────────────────────────┼─────────────────┤
│ dense_2 (Dense)                      │ (None, 13)                  │           2,041 │
├──────────────────────────────────────┼─────────────────────────────┼─────────────────┤
│ dropout_2 (Dropout)                  │ (None, 13)                  │               0 │
├──────────────────────────────────────┼─────────────────────────────┼─────────────────┤
│ batch_normalization_3                │ (None, 13)                  │              52 │
│ (BatchNormalization)                 │                             │                 │
├──────────────────────────────────────┼─────────────────────────────┼─────────────────┤
│ dense_3 (Dense)                      │ (None, 1)                   │              14 │
└──────────────────────────────────────┴─────────────────────────────┴─────────────────┘
 Total params: 14,825 (57.91 KB)
 Trainable params: 4,811 (18.79 KB)
 Non-trainable params: 390 (1.52 KB)
 Optimizer params: 9,624 (37.60 KB)

